7767517
437 469
Input            data             0 1 data 0=224 1=224 2=3
Split            splitncnn_0      1 2 data data_splitncnn_0 data_splitncnn_1
Convolution      conv0_1          1 1 data_splitncnn_1 conv0_1 0=13 1=3 2=1 3=2 4=1 5=1 6=351
Pooling          pool0_1          1 1 data_splitncnn_0 pool0_1 0=0 1=2 2=2 3=0 4=0
Concat           concat0_1        2 1 conv0_1 pool0_1 concat0_1 0=0
BatchNorm        BN0_1            1 1 concat0_1 BN0_1 0=16
Scale            BN0_1/scale      1 1 BN0_1 BN0_1_BN0_1/scale 0=16 1=1
PReLU            prelu0_1         1 1 BN0_1_BN0_1/scale prelu0_1 0=16
Split            splitncnn_1      1 3 prelu0_1 prelu0_1_splitncnn_0 prelu0_1_splitncnn_1 prelu0_1_splitncnn_2
Convolution      conv1_0_0        1 1 prelu0_1_splitncnn_2 conv1_0_0 0=16 1=2 2=1 3=2 4=0 5=0 6=1024
BatchNorm        BN1_0_0          1 1 conv1_0_0 BN1_0_0 0=16
Scale            BN1_0_0/scale    1 1 BN1_0_0 BN1_0_0_BN1_0_0/scale 0=16 1=1
PReLU            prelu1_0_0       1 1 BN1_0_0_BN1_0_0/scale prelu1_0_0 0=16
Convolution      conv1_0_1        1 1 prelu1_0_0 conv1_0_1 0=16 1=3 2=1 3=1 4=1 5=1 6=2304
BatchNorm        BN1_0_1          1 1 conv1_0_1 BN1_0_1 0=16
Scale            BN1_0_1/scale    1 1 BN1_0_1 BN1_0_1_BN1_0_1/scale 0=16 1=1
PReLU            prelu1_0_1       1 1 BN1_0_1_BN1_0_1/scale prelu1_0_1 0=16
Convolution      conv1_0_2        1 1 prelu1_0_1 conv1_0_2 0=64 1=1 2=1 3=1 4=0 5=0 6=1024
BatchNorm        BN1_0_2          1 1 conv1_0_2 BN1_0_2 0=64
Scale            BN1_0_2/scale    1 1 BN1_0_2 BN1_0_2_BN1_0_2/scale 0=64 1=1
Dropout          drop1_0_3        1 1 BN1_0_2_BN1_0_2/scale drop1_0_3
Pooling          pool1_0_4        1 2 prelu0_1_splitncnn_1 pool1_0_4 pool1_0_4_mask 0=0 1=2 2=2 3=0 4=0
Convolution      conv1_0_4        1 1 pool1_0_4 conv1_0_4 0=64 1=1 2=1 3=1 4=0 5=0 6=1024
BatchNorm        BN1_0_4          1 1 conv1_0_4 BN1_0_4 0=64
Scale            BN1_0_4/scale    1 1 BN1_0_4 BN1_0_4_BN1_0_4/scale 0=64 1=1
Eltwise          eltwise1_0_4     2 1 drop1_0_3 BN1_0_4_BN1_0_4/scale eltwise1_0_4 0=1 -23301=0
PReLU            prelu1_0_4       1 1 eltwise1_0_4 prelu1_0_4 0=64
Split            splitncnn_2      1 2 prelu1_0_4 prelu1_0_4_splitncnn_0 prelu1_0_4_splitncnn_1
Convolution      conv1_1_0        1 1 prelu1_0_4_splitncnn_1 conv1_1_0 0=16 1=1 2=1 3=1 4=0 5=0 6=1024
BatchNorm        BN1_1_0          1 1 conv1_1_0 BN1_1_0 0=16
Scale            BN1_1_0/scale    1 1 BN1_1_0 BN1_1_0_BN1_1_0/scale 0=16 1=1
PReLU            prelu1_1_0       1 1 BN1_1_0_BN1_1_0/scale prelu1_1_0 0=16
Convolution      conv1_1_1        1 1 prelu1_1_0 conv1_1_1 0=16 1=3 2=1 3=1 4=1 5=1 6=2304
BatchNorm        BN1_1_1          1 1 conv1_1_1 BN1_1_1 0=16
Scale            BN1_1_1/scale    1 1 BN1_1_1 BN1_1_1_BN1_1_1/scale 0=16 1=1
PReLU            prelu1_1_1       1 1 BN1_1_1_BN1_1_1/scale prelu1_1_1 0=16
Convolution      conv1_1_2        1 1 prelu1_1_1 conv1_1_2 0=64 1=1 2=1 3=1 4=0 5=0 6=1024
BatchNorm        BN1_1_2          1 1 conv1_1_2 BN1_1_2 0=64
Scale            BN1_1_2/scale    1 1 BN1_1_2 BN1_1_2_BN1_1_2/scale 0=64 1=1
Dropout          drop1_1_3        1 1 BN1_1_2_BN1_1_2/scale drop1_1_3
Eltwise          eltwise1_1_4     2 1 drop1_1_3 prelu1_0_4_splitncnn_0 eltwise1_1_4 0=1 -23301=0
PReLU            prelu1_1_4       1 1 eltwise1_1_4 prelu1_1_4 0=64
Split            splitncnn_3      1 2 prelu1_1_4 prelu1_1_4_splitncnn_0 prelu1_1_4_splitncnn_1
Convolution      conv1_2_0        1 1 prelu1_1_4_splitncnn_1 conv1_2_0 0=16 1=1 2=1 3=1 4=0 5=0 6=1024
BatchNorm        BN1_2_0          1 1 conv1_2_0 BN1_2_0 0=16
Scale            BN1_2_0/scale    1 1 BN1_2_0 BN1_2_0_BN1_2_0/scale 0=16 1=1
PReLU            prelu1_2_0       1 1 BN1_2_0_BN1_2_0/scale prelu1_2_0 0=16
Convolution      conv1_2_1        1 1 prelu1_2_0 conv1_2_1 0=16 1=3 2=1 3=1 4=1 5=1 6=2304
BatchNorm        BN1_2_1          1 1 conv1_2_1 BN1_2_1 0=16
Scale            BN1_2_1/scale    1 1 BN1_2_1 BN1_2_1_BN1_2_1/scale 0=16 1=1
PReLU            prelu1_2_1       1 1 BN1_2_1_BN1_2_1/scale prelu1_2_1 0=16
Convolution      conv1_2_2        1 1 prelu1_2_1 conv1_2_2 0=64 1=1 2=1 3=1 4=0 5=0 6=1024
BatchNorm        BN1_2_2          1 1 conv1_2_2 BN1_2_2 0=64
Scale            BN1_2_2/scale    1 1 BN1_2_2 BN1_2_2_BN1_2_2/scale 0=64 1=1
Dropout          drop1_2_3        1 1 BN1_2_2_BN1_2_2/scale drop1_2_3
Eltwise          eltwise1_2_4     2 1 drop1_2_3 prelu1_1_4_splitncnn_0 eltwise1_2_4 0=1 -23301=0
PReLU            prelu1_2_4       1 1 eltwise1_2_4 prelu1_2_4 0=64
Split            splitncnn_4      1 2 prelu1_2_4 prelu1_2_4_splitncnn_0 prelu1_2_4_splitncnn_1
Convolution      conv1_3_0        1 1 prelu1_2_4_splitncnn_1 conv1_3_0 0=16 1=1 2=1 3=1 4=0 5=0 6=1024
BatchNorm        BN1_3_0          1 1 conv1_3_0 BN1_3_0 0=16
Scale            BN1_3_0/scale    1 1 BN1_3_0 BN1_3_0_BN1_3_0/scale 0=16 1=1
PReLU            prelu1_3_0       1 1 BN1_3_0_BN1_3_0/scale prelu1_3_0 0=16
Convolution      conv1_3_1        1 1 prelu1_3_0 conv1_3_1 0=16 1=3 2=1 3=1 4=1 5=1 6=2304
BatchNorm        BN1_3_1          1 1 conv1_3_1 BN1_3_1 0=16
Scale            BN1_3_1/scale    1 1 BN1_3_1 BN1_3_1_BN1_3_1/scale 0=16 1=1
PReLU            prelu1_3_1       1 1 BN1_3_1_BN1_3_1/scale prelu1_3_1 0=16
Convolution      conv1_3_2        1 1 prelu1_3_1 conv1_3_2 0=64 1=1 2=1 3=1 4=0 5=0 6=1024
BatchNorm        BN1_3_2          1 1 conv1_3_2 BN1_3_2 0=64
Scale            BN1_3_2/scale    1 1 BN1_3_2 BN1_3_2_BN1_3_2/scale 0=64 1=1
Dropout          drop1_3_3        1 1 BN1_3_2_BN1_3_2/scale drop1_3_3
Eltwise          eltwise1_3_4     2 1 drop1_3_3 prelu1_2_4_splitncnn_0 eltwise1_3_4 0=1 -23301=0
PReLU            prelu1_3_4       1 1 eltwise1_3_4 prelu1_3_4 0=64
Split            splitncnn_5      1 2 prelu1_3_4 prelu1_3_4_splitncnn_0 prelu1_3_4_splitncnn_1
Convolution      conv1_4_0        1 1 prelu1_3_4_splitncnn_1 conv1_4_0 0=16 1=1 2=1 3=1 4=0 5=0 6=1024
BatchNorm        BN1_4_0          1 1 conv1_4_0 BN1_4_0 0=16
Scale            BN1_4_0/scale    1 1 BN1_4_0 BN1_4_0_BN1_4_0/scale 0=16 1=1
PReLU            prelu1_4_0       1 1 BN1_4_0_BN1_4_0/scale prelu1_4_0 0=16
Convolution      conv1_4_1        1 1 prelu1_4_0 conv1_4_1 0=16 1=3 2=1 3=1 4=1 5=1 6=2304
BatchNorm        BN1_4_1          1 1 conv1_4_1 BN1_4_1 0=16
Scale            BN1_4_1/scale    1 1 BN1_4_1 BN1_4_1_BN1_4_1/scale 0=16 1=1
PReLU            prelu1_4_1       1 1 BN1_4_1_BN1_4_1/scale prelu1_4_1 0=16
Convolution      conv1_4_2        1 1 prelu1_4_1 conv1_4_2 0=64 1=1 2=1 3=1 4=0 5=0 6=1024
BatchNorm        BN1_4_2          1 1 conv1_4_2 BN1_4_2 0=64
Scale            BN1_4_2/scale    1 1 BN1_4_2 BN1_4_2_BN1_4_2/scale 0=64 1=1
Dropout          drop1_4_3        1 1 BN1_4_2_BN1_4_2/scale drop1_4_3
Eltwise          eltwise1_4_4     2 1 drop1_4_3 prelu1_3_4_splitncnn_0 eltwise1_4_4 0=1 -23301=0
PReLU            prelu1_4_4       1 1 eltwise1_4_4 prelu1_4_4 0=64
Split            splitncnn_6      1 3 prelu1_4_4 prelu1_4_4_splitncnn_0 prelu1_4_4_splitncnn_1 prelu1_4_4_splitncnn_2
Convolution      conv2_0_0        1 1 prelu1_4_4_splitncnn_2 conv2_0_0 0=32 1=2 2=1 3=2 4=0 5=0 6=8192
BatchNorm        BN2_0_0          1 1 conv2_0_0 BN2_0_0 0=32
Scale            BN2_0_0/scale    1 1 BN2_0_0 BN2_0_0_BN2_0_0/scale 0=32 1=1
PReLU            prelu2_0_0       1 1 BN2_0_0_BN2_0_0/scale prelu2_0_0 0=32
Convolution      conv2_0_1        1 1 prelu2_0_0 conv2_0_1 0=32 1=3 2=1 3=1 4=1 5=1 6=9216
BatchNorm        BN2_0_1          1 1 conv2_0_1 BN2_0_1 0=32
Scale            BN2_0_1/scale    1 1 BN2_0_1 BN2_0_1_BN2_0_1/scale 0=32 1=1
PReLU            prelu2_0_1       1 1 BN2_0_1_BN2_0_1/scale prelu2_0_1 0=32
Convolution      conv2_0_2        1 1 prelu2_0_1 conv2_0_2 0=128 1=1 2=1 3=1 4=0 5=0 6=4096
BatchNorm        BN2_0_2          1 1 conv2_0_2 BN2_0_2 0=128
Scale            BN2_0_2/scale    1 1 BN2_0_2 BN2_0_2_BN2_0_2/scale 0=128 1=1
Dropout          drop2_0_3        1 1 BN2_0_2_BN2_0_2/scale drop2_0_3
Pooling          pool2_0_4        1 2 prelu1_4_4_splitncnn_1 pool2_0_4 pool2_0_4_mask 0=0 1=2 2=2 3=0 4=0
Convolution      conv2_0_4        1 1 pool2_0_4 conv2_0_4 0=128 1=1 2=1 3=1 4=0 5=0 6=8192
BatchNorm        BN2_0_4          1 1 conv2_0_4 BN2_0_4 0=128
Scale            BN2_0_4/scale    1 1 BN2_0_4 BN2_0_4_BN2_0_4/scale 0=128 1=1
Eltwise          eltwise2_0_4     2 1 drop2_0_3 BN2_0_4_BN2_0_4/scale eltwise2_0_4 0=1 -23301=0
PReLU            prelu2_0_4       1 1 eltwise2_0_4 prelu2_0_4 0=128
Split            splitncnn_7      1 2 prelu2_0_4 prelu2_0_4_splitncnn_0 prelu2_0_4_splitncnn_1
Convolution      conv2_1_0        1 1 prelu2_0_4_splitncnn_1 conv2_1_0 0=32 1=1 2=1 3=1 4=0 5=0 6=4096
BatchNorm        BN2_1_0          1 1 conv2_1_0 BN2_1_0 0=32
Scale            BN2_1_0/scale    1 1 BN2_1_0 BN2_1_0_BN2_1_0/scale 0=32 1=1
PReLU            prelu2_1_0       1 1 BN2_1_0_BN2_1_0/scale prelu2_1_0 0=32
Convolution      conv2_1_1        1 1 prelu2_1_0 conv2_1_1 0=32 1=3 2=1 3=1 4=1 5=1 6=9216
BatchNorm        BN2_1_1          1 1 conv2_1_1 BN2_1_1 0=32
Scale            BN2_1_1/scale    1 1 BN2_1_1 BN2_1_1_BN2_1_1/scale 0=32 1=1
PReLU            prelu2_1_1       1 1 BN2_1_1_BN2_1_1/scale prelu2_1_1 0=32
Convolution      conv2_1_2        1 1 prelu2_1_1 conv2_1_2 0=128 1=1 2=1 3=1 4=0 5=0 6=4096
BatchNorm        BN2_1_2          1 1 conv2_1_2 BN2_1_2 0=128
Scale            BN2_1_2/scale    1 1 BN2_1_2 BN2_1_2_BN2_1_2/scale 0=128 1=1
Dropout          drop2_1_3        1 1 BN2_1_2_BN2_1_2/scale drop2_1_3
Eltwise          eltwise2_1_4     2 1 drop2_1_3 prelu2_0_4_splitncnn_0 eltwise2_1_4 0=1 -23301=0
PReLU            prelu2_1_4       1 1 eltwise2_1_4 prelu2_1_4 0=128
Split            splitncnn_8      1 2 prelu2_1_4 prelu2_1_4_splitncnn_0 prelu2_1_4_splitncnn_1
Convolution      conv2_2_0        1 1 prelu2_1_4_splitncnn_1 conv2_2_0 0=32 1=1 2=1 3=1 4=0 5=0 6=4096
BatchNorm        BN2_2_0          1 1 conv2_2_0 BN2_2_0 0=32
Scale            BN2_2_0/scale    1 1 BN2_2_0 BN2_2_0_BN2_2_0/scale 0=32 1=1
PReLU            prelu2_2_0       1 1 BN2_2_0_BN2_2_0/scale prelu2_2_0 0=32
Convolution      conv2_2_1        1 1 prelu2_2_0 conv2_2_1 0=32 1=3 2=2 3=1 4=2 5=1 6=9216
BatchNorm        BN2_2_1          1 1 conv2_2_1 BN2_2_1 0=32
Scale            BN2_2_1/scale    1 1 BN2_2_1 BN2_2_1_BN2_2_1/scale 0=32 1=1
PReLU            prelu2_2_1       1 1 BN2_2_1_BN2_2_1/scale prelu2_2_1 0=32
Convolution      conv2_2_2        1 1 prelu2_2_1 conv2_2_2 0=128 1=1 2=1 3=1 4=0 5=0 6=4096
BatchNorm        BN2_2_2          1 1 conv2_2_2 BN2_2_2 0=128
Scale            BN2_2_2/scale    1 1 BN2_2_2 BN2_2_2_BN2_2_2/scale 0=128 1=1
Dropout          drop2_2_3        1 1 BN2_2_2_BN2_2_2/scale drop2_2_3
Eltwise          eltwise2_2_4     2 1 drop2_2_3 prelu2_1_4_splitncnn_0 eltwise2_2_4 0=1 -23301=0
PReLU            prelu2_2_4       1 1 eltwise2_2_4 prelu2_2_4 0=128
Split            splitncnn_9      1 2 prelu2_2_4 prelu2_2_4_splitncnn_0 prelu2_2_4_splitncnn_1
Convolution      conv2_3_0        1 1 prelu2_2_4_splitncnn_1 conv2_3_0 0=32 1=1 2=1 3=1 4=0 5=0 6=4096
BatchNorm        BN2_3_0          1 1 conv2_3_0 BN2_3_0 0=32
Scale            BN2_3_0/scale    1 1 BN2_3_0 BN2_3_0_BN2_3_0/scale 0=32 1=1
PReLU            prelu2_3_0       1 1 BN2_3_0_BN2_3_0/scale prelu2_3_0 0=32
Convolution      conv2_3_1_a      1 1 prelu2_3_0 conv2_3_1_a 0=32 1=1 11=5 2=1 3=1 4=1 5=0 6=5120
Convolution      conv2_3_1        1 1 conv2_3_1_a conv2_3_1 0=32 1=5 11=1 2=1 3=1 4=1 5=1 6=5120
BatchNorm        BN2_3_1          1 1 conv2_3_1 BN2_3_1 0=32
Scale            BN2_3_1/scale    1 1 BN2_3_1 BN2_3_1_BN2_3_1/scale 0=32 1=1
PReLU            prelu2_3_1       1 1 BN2_3_1_BN2_3_1/scale prelu2_3_1 0=32
Convolution      conv2_3_2        1 1 prelu2_3_1 conv2_3_2 0=128 1=1 2=1 3=1 4=0 5=0 6=4096
BatchNorm        BN2_3_2          1 1 conv2_3_2 BN2_3_2 0=128
Scale            BN2_3_2/scale    1 1 BN2_3_2 BN2_3_2_BN2_3_2/scale 0=128 1=1
Dropout          drop2_3_3        1 1 BN2_3_2_BN2_3_2/scale drop2_3_3
Eltwise          eltwise2_3_4     2 1 drop2_3_3 prelu2_2_4_splitncnn_0 eltwise2_3_4 0=1 -23301=0
PReLU            prelu2_3_4       1 1 eltwise2_3_4 prelu2_3_4 0=128
Split            splitncnn_10     1 2 prelu2_3_4 prelu2_3_4_splitncnn_0 prelu2_3_4_splitncnn_1
Convolution      conv2_4_0        1 1 prelu2_3_4_splitncnn_1 conv2_4_0 0=32 1=1 2=1 3=1 4=0 5=0 6=4096
BatchNorm        BN2_4_0          1 1 conv2_4_0 BN2_4_0 0=32
Scale            BN2_4_0/scale    1 1 BN2_4_0 BN2_4_0_BN2_4_0/scale 0=32 1=1
PReLU            prelu2_4_0       1 1 BN2_4_0_BN2_4_0/scale prelu2_4_0 0=32
Convolution      conv2_4_1        1 1 prelu2_4_0 conv2_4_1 0=32 1=3 2=4 3=1 4=4 5=1 6=9216
BatchNorm        BN2_4_1          1 1 conv2_4_1 BN2_4_1 0=32
Scale            BN2_4_1/scale    1 1 BN2_4_1 BN2_4_1_BN2_4_1/scale 0=32 1=1
PReLU            prelu2_4_1       1 1 BN2_4_1_BN2_4_1/scale prelu2_4_1 0=32
Convolution      conv2_4_2        1 1 prelu2_4_1 conv2_4_2 0=128 1=1 2=1 3=1 4=0 5=0 6=4096
BatchNorm        BN2_4_2          1 1 conv2_4_2 BN2_4_2 0=128
Scale            BN2_4_2/scale    1 1 BN2_4_2 BN2_4_2_BN2_4_2/scale 0=128 1=1
Dropout          drop2_4_3        1 1 BN2_4_2_BN2_4_2/scale drop2_4_3
Eltwise          eltwise2_4_4     2 1 drop2_4_3 prelu2_3_4_splitncnn_0 eltwise2_4_4 0=1 -23301=0
PReLU            prelu2_4_4       1 1 eltwise2_4_4 prelu2_4_4 0=128
Split            splitncnn_11     1 2 prelu2_4_4 prelu2_4_4_splitncnn_0 prelu2_4_4_splitncnn_1
Convolution      conv2_5_0        1 1 prelu2_4_4_splitncnn_1 conv2_5_0 0=32 1=1 2=1 3=1 4=0 5=0 6=4096
BatchNorm        BN2_5_0          1 1 conv2_5_0 BN2_5_0 0=32
Scale            BN2_5_0/scale    1 1 BN2_5_0 BN2_5_0_BN2_5_0/scale 0=32 1=1
PReLU            prelu2_5_0       1 1 BN2_5_0_BN2_5_0/scale prelu2_5_0 0=32
Convolution      conv2_5_1        1 1 prelu2_5_0 conv2_5_1 0=32 1=3 2=1 3=1 4=1 5=1 6=9216
BatchNorm        BN2_5_1          1 1 conv2_5_1 BN2_5_1 0=32
Scale            BN2_5_1/scale    1 1 BN2_5_1 BN2_5_1_BN2_5_1/scale 0=32 1=1
PReLU            prelu2_5_1       1 1 BN2_5_1_BN2_5_1/scale prelu2_5_1 0=32
Convolution      conv2_5_2        1 1 prelu2_5_1 conv2_5_2 0=128 1=1 2=1 3=1 4=0 5=0 6=4096
BatchNorm        BN2_5_2          1 1 conv2_5_2 BN2_5_2 0=128
Scale            BN2_5_2/scale    1 1 BN2_5_2 BN2_5_2_BN2_5_2/scale 0=128 1=1
Dropout          drop2_5_3        1 1 BN2_5_2_BN2_5_2/scale drop2_5_3
Eltwise          eltwise2_5_4     2 1 drop2_5_3 prelu2_4_4_splitncnn_0 eltwise2_5_4 0=1 -23301=0
PReLU            prelu2_5_4       1 1 eltwise2_5_4 prelu2_5_4 0=128
Split            splitncnn_12     1 2 prelu2_5_4 prelu2_5_4_splitncnn_0 prelu2_5_4_splitncnn_1
Convolution      conv2_6_0        1 1 prelu2_5_4_splitncnn_1 conv2_6_0 0=32 1=1 2=1 3=1 4=0 5=0 6=4096
BatchNorm        BN2_6_0          1 1 conv2_6_0 BN2_6_0 0=32
Scale            BN2_6_0/scale    1 1 BN2_6_0 BN2_6_0_BN2_6_0/scale 0=32 1=1
PReLU            prelu2_6_0       1 1 BN2_6_0_BN2_6_0/scale prelu2_6_0 0=32
Convolution      conv2_6_1        1 1 prelu2_6_0 conv2_6_1 0=32 1=3 2=8 3=1 4=8 5=1 6=9216
BatchNorm        BN2_6_1          1 1 conv2_6_1 BN2_6_1 0=32
Scale            BN2_6_1/scale    1 1 BN2_6_1 BN2_6_1_BN2_6_1/scale 0=32 1=1
PReLU            prelu2_6_1       1 1 BN2_6_1_BN2_6_1/scale prelu2_6_1 0=32
Convolution      conv2_6_2        1 1 prelu2_6_1 conv2_6_2 0=128 1=1 2=1 3=1 4=0 5=0 6=4096
BatchNorm        BN2_6_2          1 1 conv2_6_2 BN2_6_2 0=128
Scale            BN2_6_2/scale    1 1 BN2_6_2 BN2_6_2_BN2_6_2/scale 0=128 1=1
Dropout          drop2_6_3        1 1 BN2_6_2_BN2_6_2/scale drop2_6_3
Eltwise          eltwise2_6_4     2 1 drop2_6_3 prelu2_5_4_splitncnn_0 eltwise2_6_4 0=1 -23301=0
PReLU            prelu2_6_4       1 1 eltwise2_6_4 prelu2_6_4 0=128
Split            splitncnn_13     1 2 prelu2_6_4 prelu2_6_4_splitncnn_0 prelu2_6_4_splitncnn_1
Convolution      conv2_7_0        1 1 prelu2_6_4_splitncnn_1 conv2_7_0 0=32 1=1 2=1 3=1 4=0 5=0 6=4096
BatchNorm        BN2_7_0          1 1 conv2_7_0 BN2_7_0 0=32
Scale            BN2_7_0/scale    1 1 BN2_7_0 BN2_7_0_BN2_7_0/scale 0=32 1=1
PReLU            prelu2_7_0       1 1 BN2_7_0_BN2_7_0/scale prelu2_7_0 0=32
Convolution      conv2_7_1_a      1 1 prelu2_7_0 conv2_7_1_a 0=32 1=1 11=5 2=1 3=1 4=1 5=0 6=5120
Convolution      conv2_7_1        1 1 conv2_7_1_a conv2_7_1 0=32 1=5 11=1 2=1 3=1 4=1 5=1 6=5120
BatchNorm        BN2_7_1          1 1 conv2_7_1 BN2_7_1 0=32
Scale            BN2_7_1/scale    1 1 BN2_7_1 BN2_7_1_BN2_7_1/scale 0=32 1=1
PReLU            prelu2_7_1       1 1 BN2_7_1_BN2_7_1/scale prelu2_7_1 0=32
Convolution      conv2_7_2        1 1 prelu2_7_1 conv2_7_2 0=128 1=1 2=1 3=1 4=0 5=0 6=4096
BatchNorm        BN2_7_2          1 1 conv2_7_2 BN2_7_2 0=128
Scale            BN2_7_2/scale    1 1 BN2_7_2 BN2_7_2_BN2_7_2/scale 0=128 1=1
Dropout          drop2_7_3        1 1 BN2_7_2_BN2_7_2/scale drop2_7_3
Eltwise          eltwise2_7_4     2 1 drop2_7_3 prelu2_6_4_splitncnn_0 eltwise2_7_4 0=1 -23301=0
PReLU            prelu2_7_4       1 1 eltwise2_7_4 prelu2_7_4 0=128
Split            splitncnn_14     1 2 prelu2_7_4 prelu2_7_4_splitncnn_0 prelu2_7_4_splitncnn_1
Convolution      conv2_8_0        1 1 prelu2_7_4_splitncnn_1 conv2_8_0 0=32 1=1 2=1 3=1 4=0 5=0 6=4096
BatchNorm        BN2_8_0          1 1 conv2_8_0 BN2_8_0 0=32
Scale            BN2_8_0/scale    1 1 BN2_8_0 BN2_8_0_BN2_8_0/scale 0=32 1=1
PReLU            prelu2_8_0       1 1 BN2_8_0_BN2_8_0/scale prelu2_8_0 0=32
Convolution      conv2_8_1        1 1 prelu2_8_0 conv2_8_1 0=32 1=3 2=16 3=1 4=16 5=1 6=9216
BatchNorm        BN2_8_1          1 1 conv2_8_1 BN2_8_1 0=32
Scale            BN2_8_1/scale    1 1 BN2_8_1 BN2_8_1_BN2_8_1/scale 0=32 1=1
PReLU            prelu2_8_1       1 1 BN2_8_1_BN2_8_1/scale prelu2_8_1 0=32
Convolution      conv2_8_2        1 1 prelu2_8_1 conv2_8_2 0=128 1=1 2=1 3=1 4=0 5=0 6=4096
BatchNorm        BN2_8_2          1 1 conv2_8_2 BN2_8_2 0=128
Scale            BN2_8_2/scale    1 1 BN2_8_2 BN2_8_2_BN2_8_2/scale 0=128 1=1
Dropout          drop2_8_3        1 1 BN2_8_2_BN2_8_2/scale drop2_8_3
Eltwise          eltwise2_8_4     2 1 drop2_8_3 prelu2_7_4_splitncnn_0 eltwise2_8_4 0=1 -23301=0
PReLU            prelu2_8_4       1 1 eltwise2_8_4 prelu2_8_4 0=128
Split            splitncnn_15     1 2 prelu2_8_4 prelu2_8_4_splitncnn_0 prelu2_8_4_splitncnn_1
Convolution      conv3_1_0        1 1 prelu2_8_4_splitncnn_1 conv3_1_0 0=32 1=1 2=1 3=1 4=0 5=0 6=4096
BatchNorm        BN3_1_0          1 1 conv3_1_0 BN3_1_0 0=32
Scale            BN3_1_0/scale    1 1 BN3_1_0 BN3_1_0_BN3_1_0/scale 0=32 1=1
PReLU            prelu3_1_0       1 1 BN3_1_0_BN3_1_0/scale prelu3_1_0 0=32
Convolution      conv3_1_1        1 1 prelu3_1_0 conv3_1_1 0=32 1=3 2=1 3=1 4=1 5=1 6=9216
BatchNorm        BN3_1_1          1 1 conv3_1_1 BN3_1_1 0=32
Scale            BN3_1_1/scale    1 1 BN3_1_1 BN3_1_1_BN3_1_1/scale 0=32 1=1
PReLU            prelu3_1_1       1 1 BN3_1_1_BN3_1_1/scale prelu3_1_1 0=32
Convolution      conv3_1_2        1 1 prelu3_1_1 conv3_1_2 0=128 1=1 2=1 3=1 4=0 5=0 6=4096
BatchNorm        BN3_1_2          1 1 conv3_1_2 BN3_1_2 0=128
Scale            BN3_1_2/scale    1 1 BN3_1_2 BN3_1_2_BN3_1_2/scale 0=128 1=1
Dropout          drop3_1_3        1 1 BN3_1_2_BN3_1_2/scale drop3_1_3
Eltwise          eltwise3_1_4     2 1 drop3_1_3 prelu2_8_4_splitncnn_0 eltwise3_1_4 0=1 -23301=0
PReLU            prelu3_1_4       1 1 eltwise3_1_4 prelu3_1_4 0=128
Split            splitncnn_16     1 2 prelu3_1_4 prelu3_1_4_splitncnn_0 prelu3_1_4_splitncnn_1
Convolution      conv3_2_0        1 1 prelu3_1_4_splitncnn_1 conv3_2_0 0=32 1=1 2=1 3=1 4=0 5=0 6=4096
BatchNorm        BN3_2_0          1 1 conv3_2_0 BN3_2_0 0=32
Scale            BN3_2_0/scale    1 1 BN3_2_0 BN3_2_0_BN3_2_0/scale 0=32 1=1
PReLU            prelu3_2_0       1 1 BN3_2_0_BN3_2_0/scale prelu3_2_0 0=32
Convolution      conv3_2_1        1 1 prelu3_2_0 conv3_2_1 0=32 1=3 2=2 3=1 4=2 5=1 6=9216
BatchNorm        BN3_2_1          1 1 conv3_2_1 BN3_2_1 0=32
Scale            BN3_2_1/scale    1 1 BN3_2_1 BN3_2_1_BN3_2_1/scale 0=32 1=1
PReLU            prelu3_2_1       1 1 BN3_2_1_BN3_2_1/scale prelu3_2_1 0=32
Convolution      conv3_2_2        1 1 prelu3_2_1 conv3_2_2 0=128 1=1 2=1 3=1 4=0 5=0 6=4096
BatchNorm        BN3_2_2          1 1 conv3_2_2 BN3_2_2 0=128
Scale            BN3_2_2/scale    1 1 BN3_2_2 BN3_2_2_BN3_2_2/scale 0=128 1=1
Dropout          drop3_2_3        1 1 BN3_2_2_BN3_2_2/scale drop3_2_3
Eltwise          eltwise3_2_4     2 1 drop3_2_3 prelu3_1_4_splitncnn_0 eltwise3_2_4 0=1 -23301=0
PReLU            prelu3_2_4       1 1 eltwise3_2_4 prelu3_2_4 0=128
Split            splitncnn_17     1 2 prelu3_2_4 prelu3_2_4_splitncnn_0 prelu3_2_4_splitncnn_1
Convolution      conv3_3_0        1 1 prelu3_2_4_splitncnn_1 conv3_3_0 0=32 1=1 2=1 3=1 4=0 5=0 6=4096
BatchNorm        BN3_3_0          1 1 conv3_3_0 BN3_3_0 0=32
Scale            BN3_3_0/scale    1 1 BN3_3_0 BN3_3_0_BN3_3_0/scale 0=32 1=1
PReLU            prelu3_3_0       1 1 BN3_3_0_BN3_3_0/scale prelu3_3_0 0=32
Convolution      conv3_3_1_a      1 1 prelu3_3_0 conv3_3_1_a 0=32 1=1 11=5 2=1 3=1 4=1 5=0 6=5120
Convolution      conv3_3_1        1 1 conv3_3_1_a conv3_3_1 0=32 1=5 11=1 2=1 3=1 4=1 5=1 6=5120
BatchNorm        BN3_3_1          1 1 conv3_3_1 BN3_3_1 0=32
Scale            BN3_3_1/scale    1 1 BN3_3_1 BN3_3_1_BN3_3_1/scale 0=32 1=1
PReLU            prelu3_3_1       1 1 BN3_3_1_BN3_3_1/scale prelu3_3_1 0=32
Convolution      conv3_3_2        1 1 prelu3_3_1 conv3_3_2 0=128 1=1 2=1 3=1 4=0 5=0 6=4096
BatchNorm        BN3_3_2          1 1 conv3_3_2 BN3_3_2 0=128
Scale            BN3_3_2/scale    1 1 BN3_3_2 BN3_3_2_BN3_3_2/scale 0=128 1=1
Dropout          drop3_3_3        1 1 BN3_3_2_BN3_3_2/scale drop3_3_3
Eltwise          eltwise3_3_4     2 1 drop3_3_3 prelu3_2_4_splitncnn_0 eltwise3_3_4 0=1 -23301=0
PReLU            prelu3_3_4       1 1 eltwise3_3_4 prelu3_3_4 0=128
Split            splitncnn_18     1 2 prelu3_3_4 prelu3_3_4_splitncnn_0 prelu3_3_4_splitncnn_1
Convolution      conv3_4_0        1 1 prelu3_3_4_splitncnn_1 conv3_4_0 0=32 1=1 2=1 3=1 4=0 5=0 6=4096
BatchNorm        BN3_4_0          1 1 conv3_4_0 BN3_4_0 0=32
Scale            BN3_4_0/scale    1 1 BN3_4_0 BN3_4_0_BN3_4_0/scale 0=32 1=1
PReLU            prelu3_4_0       1 1 BN3_4_0_BN3_4_0/scale prelu3_4_0 0=32
Convolution      conv3_4_1        1 1 prelu3_4_0 conv3_4_1 0=32 1=3 2=4 3=1 4=4 5=1 6=9216
BatchNorm        BN3_4_1          1 1 conv3_4_1 BN3_4_1 0=32
Scale            BN3_4_1/scale    1 1 BN3_4_1 BN3_4_1_BN3_4_1/scale 0=32 1=1
PReLU            prelu3_4_1       1 1 BN3_4_1_BN3_4_1/scale prelu3_4_1 0=32
Convolution      conv3_4_2        1 1 prelu3_4_1 conv3_4_2 0=128 1=1 2=1 3=1 4=0 5=0 6=4096
BatchNorm        BN3_4_2          1 1 conv3_4_2 BN3_4_2 0=128
Scale            BN3_4_2/scale    1 1 BN3_4_2 BN3_4_2_BN3_4_2/scale 0=128 1=1
Dropout          drop3_4_3        1 1 BN3_4_2_BN3_4_2/scale drop3_4_3
Eltwise          eltwise3_4_4     2 1 drop3_4_3 prelu3_3_4_splitncnn_0 eltwise3_4_4 0=1 -23301=0
PReLU            prelu3_4_4       1 1 eltwise3_4_4 prelu3_4_4 0=128
Split            splitncnn_19     1 2 prelu3_4_4 prelu3_4_4_splitncnn_0 prelu3_4_4_splitncnn_1
Convolution      conv3_5_0        1 1 prelu3_4_4_splitncnn_1 conv3_5_0 0=32 1=1 2=1 3=1 4=0 5=0 6=4096
BatchNorm        BN3_5_0          1 1 conv3_5_0 BN3_5_0 0=32
Scale            BN3_5_0/scale    1 1 BN3_5_0 BN3_5_0_BN3_5_0/scale 0=32 1=1
PReLU            prelu3_5_0       1 1 BN3_5_0_BN3_5_0/scale prelu3_5_0 0=32
Convolution      conv3_5_1        1 1 prelu3_5_0 conv3_5_1 0=32 1=3 2=1 3=1 4=1 5=1 6=9216
BatchNorm        BN3_5_1          1 1 conv3_5_1 BN3_5_1 0=32
Scale            BN3_5_1/scale    1 1 BN3_5_1 BN3_5_1_BN3_5_1/scale 0=32 1=1
PReLU            prelu3_5_1       1 1 BN3_5_1_BN3_5_1/scale prelu3_5_1 0=32
Convolution      conv3_5_2        1 1 prelu3_5_1 conv3_5_2 0=128 1=1 2=1 3=1 4=0 5=0 6=4096
BatchNorm        BN3_5_2          1 1 conv3_5_2 BN3_5_2 0=128
Scale            BN3_5_2/scale    1 1 BN3_5_2 BN3_5_2_BN3_5_2/scale 0=128 1=1
Dropout          drop3_5_3        1 1 BN3_5_2_BN3_5_2/scale drop3_5_3
Eltwise          eltwise3_5_4     2 1 drop3_5_3 prelu3_4_4_splitncnn_0 eltwise3_5_4 0=1 -23301=0
PReLU            prelu3_5_4       1 1 eltwise3_5_4 prelu3_5_4 0=128
Split            splitncnn_20     1 2 prelu3_5_4 prelu3_5_4_splitncnn_0 prelu3_5_4_splitncnn_1
Convolution      conv3_6_0        1 1 prelu3_5_4_splitncnn_1 conv3_6_0 0=32 1=1 2=1 3=1 4=0 5=0 6=4096
BatchNorm        BN3_6_0          1 1 conv3_6_0 BN3_6_0 0=32
Scale            BN3_6_0/scale    1 1 BN3_6_0 BN3_6_0_BN3_6_0/scale 0=32 1=1
PReLU            prelu3_6_0       1 1 BN3_6_0_BN3_6_0/scale prelu3_6_0 0=32
Convolution      conv3_6_1        1 1 prelu3_6_0 conv3_6_1 0=32 1=3 2=8 3=1 4=8 5=1 6=9216
BatchNorm        BN3_6_1          1 1 conv3_6_1 BN3_6_1 0=32
Scale            BN3_6_1/scale    1 1 BN3_6_1 BN3_6_1_BN3_6_1/scale 0=32 1=1
PReLU            prelu3_6_1       1 1 BN3_6_1_BN3_6_1/scale prelu3_6_1 0=32
Convolution      conv3_6_2        1 1 prelu3_6_1 conv3_6_2 0=128 1=1 2=1 3=1 4=0 5=0 6=4096
BatchNorm        BN3_6_2          1 1 conv3_6_2 BN3_6_2 0=128
Scale            BN3_6_2/scale    1 1 BN3_6_2 BN3_6_2_BN3_6_2/scale 0=128 1=1
Dropout          drop3_6_3        1 1 BN3_6_2_BN3_6_2/scale drop3_6_3
Eltwise          eltwise3_6_4     2 1 drop3_6_3 prelu3_5_4_splitncnn_0 eltwise3_6_4 0=1 -23301=0
PReLU            prelu3_6_4       1 1 eltwise3_6_4 prelu3_6_4 0=128
Split            splitncnn_21     1 2 prelu3_6_4 prelu3_6_4_splitncnn_0 prelu3_6_4_splitncnn_1
Convolution      conv3_7_0        1 1 prelu3_6_4_splitncnn_1 conv3_7_0 0=32 1=1 2=1 3=1 4=0 5=0 6=4096
BatchNorm        BN3_7_0          1 1 conv3_7_0 BN3_7_0 0=32
Scale            BN3_7_0/scale    1 1 BN3_7_0 BN3_7_0_BN3_7_0/scale 0=32 1=1
PReLU            prelu3_7_0       1 1 BN3_7_0_BN3_7_0/scale prelu3_7_0 0=32
Convolution      conv3_7_1_a      1 1 prelu3_7_0 conv3_7_1_a 0=32 1=1 11=5 2=1 3=1 4=1 5=0 6=5120
Convolution      conv3_7_1        1 1 conv3_7_1_a conv3_7_1 0=32 1=5 11=1 2=1 3=1 4=1 5=1 6=5120
BatchNorm        BN3_7_1          1 1 conv3_7_1 BN3_7_1 0=32
Scale            BN3_7_1/scale    1 1 BN3_7_1 BN3_7_1_BN3_7_1/scale 0=32 1=1
PReLU            prelu3_7_1       1 1 BN3_7_1_BN3_7_1/scale prelu3_7_1 0=32
Convolution      conv3_7_2        1 1 prelu3_7_1 conv3_7_2 0=128 1=1 2=1 3=1 4=0 5=0 6=4096
BatchNorm        BN3_7_2          1 1 conv3_7_2 BN3_7_2 0=128
Scale            BN3_7_2/scale    1 1 BN3_7_2 BN3_7_2_BN3_7_2/scale 0=128 1=1
Dropout          drop3_7_3        1 1 BN3_7_2_BN3_7_2/scale drop3_7_3
Eltwise          eltwise3_7_4     2 1 drop3_7_3 prelu3_6_4_splitncnn_0 eltwise3_7_4 0=1 -23301=0
PReLU            prelu3_7_4       1 1 eltwise3_7_4 prelu3_7_4 0=128
Split            splitncnn_22     1 2 prelu3_7_4 prelu3_7_4_splitncnn_0 prelu3_7_4_splitncnn_1
Convolution      conv3_8_0        1 1 prelu3_7_4_splitncnn_1 conv3_8_0 0=32 1=1 2=1 3=1 4=0 5=0 6=4096
BatchNorm        BN3_8_0          1 1 conv3_8_0 BN3_8_0 0=32
Scale            BN3_8_0/scale    1 1 BN3_8_0 BN3_8_0_BN3_8_0/scale 0=32 1=1
PReLU            prelu3_8_0       1 1 BN3_8_0_BN3_8_0/scale prelu3_8_0 0=32
Convolution      conv3_8_1        1 1 prelu3_8_0 conv3_8_1 0=32 1=3 2=16 3=1 4=16 5=1 6=9216
BatchNorm        BN3_8_1          1 1 conv3_8_1 BN3_8_1 0=32
Scale            BN3_8_1/scale    1 1 BN3_8_1 BN3_8_1_BN3_8_1/scale 0=32 1=1
PReLU            prelu3_8_1       1 1 BN3_8_1_BN3_8_1/scale prelu3_8_1 0=32
Convolution      conv3_8_2        1 1 prelu3_8_1 conv3_8_2 0=128 1=1 2=1 3=1 4=0 5=0 6=4096
BatchNorm        BN3_8_2          1 1 conv3_8_2 BN3_8_2 0=128
Scale            BN3_8_2/scale    1 1 BN3_8_2 BN3_8_2_BN3_8_2/scale 0=128 1=1
Dropout          drop3_8_3        1 1 BN3_8_2_BN3_8_2/scale drop3_8_3
Eltwise          eltwise3_8_4     2 1 drop3_8_3 prelu3_7_4_splitncnn_0 eltwise3_8_4 0=1 -23301=0
PReLU            prelu3_8_4       1 1 eltwise3_8_4 prelu3_8_4 0=128
Split            splitncnn_23     1 2 prelu3_8_4 prelu3_8_4_splitncnn_0 prelu3_8_4_splitncnn_1
Convolution      conv4_0_0        1 1 prelu3_8_4_splitncnn_1 conv4_0_0 0=16 1=1 2=1 3=1 4=0 5=0 6=2048
BatchNorm        BN4_0_0          1 1 conv4_0_0 BN4_0_0 0=16
Scale            BN4_0_0/scale    1 1 BN4_0_0 BN4_0_0_BN4_0_0/scale 0=16 1=1
ReLU             prelu4_0_0       1 1 BN4_0_0_BN4_0_0/scale prelu4_0_0
Deconvolution    deconv4_0_1      1 1 prelu4_0_0 deconv4_0_1 0=16 1=2 2=1 3=2 4=0 5=1 6=1024
BatchNorm        BN4_0_1          1 1 deconv4_0_1 BN4_0_1 0=16
Scale            BN4_0_1/scale    1 1 BN4_0_1 BN4_0_1_BN4_0_1/scale 0=16 1=1
ReLU             prelu4_0_1       1 1 BN4_0_1_BN4_0_1/scale prelu4_0_1
Convolution      conv4_0_2        1 1 prelu4_0_1 conv4_0_2 0=64 1=1 2=1 3=1 4=0 5=0 6=1024
BatchNorm        BN4_0_2          1 1 conv4_0_2 BN4_0_2 0=64
Scale            BN4_0_2/scale    1 1 BN4_0_2 BN4_0_2_BN4_0_2/scale 0=64 1=1
Dropout          drop4_0_3        1 1 BN4_0_2_BN4_0_2/scale drop4_0_3
Convolution      conv4_0_4        1 1 prelu3_8_4_splitncnn_0 conv4_0_4 0=64 1=1 2=1 3=1 4=0 5=0 6=8192
BatchNorm        BN4_0_4          1 1 conv4_0_4 BN4_0_4 0=64
Scale            BN4_0_4/scale    1 1 BN4_0_4 BN4_0_4_BN4_0_4/scale 0=64 1=1
Interp           upsample4_0_4    2 1 BN4_0_4_BN4_0_4/scale pool2_0_4_mask upsample4_0_4 0=2 1=2.000000e+00 2=2.000000e+00 3=0 4=0
Eltwise          eltwise4_0_4     2 1 drop4_0_3 upsample4_0_4 eltwise4_0_4 0=1 -23301=0
Eltwise          eltwise4_0_5     2 1 prelu1_4_4_splitncnn_0 eltwise4_0_4 eltwise4_0_5 0=1 -23301=0
ReLU             prelu4_0_4       1 1 eltwise4_0_5 prelu4_0_4
Split            splitncnn_24     1 2 prelu4_0_4 prelu4_0_4_splitncnn_0 prelu4_0_4_splitncnn_1
Convolution      conv4_1_0        1 1 prelu4_0_4_splitncnn_1 conv4_1_0 0=16 1=1 2=1 3=1 4=0 5=0 6=1024
BatchNorm        BN4_1_0          1 1 conv4_1_0 BN4_1_0 0=16
Scale            BN4_1_0/scale    1 1 BN4_1_0 BN4_1_0_BN4_1_0/scale 0=16 1=1
ReLU             prelu4_1_0       1 1 BN4_1_0_BN4_1_0/scale prelu4_1_0
Convolution      conv4_1_1        1 1 prelu4_1_0 conv4_1_1 0=16 1=3 2=1 3=1 4=1 5=1 6=2304
BatchNorm        BN4_1_1          1 1 conv4_1_1 BN4_1_1 0=16
Scale            BN4_1_1/scale    1 1 BN4_1_1 BN4_1_1_BN4_1_1/scale 0=16 1=1
ReLU             prelu4_1_1       1 1 BN4_1_1_BN4_1_1/scale prelu4_1_1
Convolution      conv4_1_2        1 1 prelu4_1_1 conv4_1_2 0=64 1=1 2=1 3=1 4=0 5=0 6=1024
BatchNorm        BN4_1_2          1 1 conv4_1_2 BN4_1_2 0=64
Scale            BN4_1_2/scale    1 1 BN4_1_2 BN4_1_2_BN4_1_2/scale 0=64 1=1
Dropout          drop4_1_3        1 1 BN4_1_2_BN4_1_2/scale drop4_1_3
Eltwise          eltwise4_1_4     2 1 drop4_1_3 prelu4_0_4_splitncnn_0 eltwise4_1_4 0=1 -23301=0
ReLU             prelu4_1_4       1 1 eltwise4_1_4 prelu4_1_4
Split            splitncnn_25     1 2 prelu4_1_4 prelu4_1_4_splitncnn_0 prelu4_1_4_splitncnn_1
Convolution      conv4_2_0        1 1 prelu4_1_4_splitncnn_1 conv4_2_0 0=16 1=1 2=1 3=1 4=0 5=0 6=1024
BatchNorm        BN4_2_0          1 1 conv4_2_0 BN4_2_0 0=16
Scale            BN4_2_0/scale    1 1 BN4_2_0 BN4_2_0_BN4_2_0/scale 0=16 1=1
ReLU             prelu4_2_0       1 1 BN4_2_0_BN4_2_0/scale prelu4_2_0
Convolution      conv4_2_1        1 1 prelu4_2_0 conv4_2_1 0=16 1=3 2=1 3=1 4=1 5=1 6=2304
BatchNorm        BN4_2_1          1 1 conv4_2_1 BN4_2_1 0=16
Scale            BN4_2_1/scale    1 1 BN4_2_1 BN4_2_1_BN4_2_1/scale 0=16 1=1
ReLU             prelu4_2_1       1 1 BN4_2_1_BN4_2_1/scale prelu4_2_1
Convolution      conv4_2_2        1 1 prelu4_2_1 conv4_2_2 0=64 1=1 2=1 3=1 4=0 5=0 6=1024
BatchNorm        BN4_2_2          1 1 conv4_2_2 BN4_2_2 0=64
Scale            BN4_2_2/scale    1 1 BN4_2_2 BN4_2_2_BN4_2_2/scale 0=64 1=1
Dropout          drop4_2_3        1 1 BN4_2_2_BN4_2_2/scale drop4_2_3
Eltwise          eltwise4_2_4     2 1 drop4_2_3 prelu4_1_4_splitncnn_0 eltwise4_2_4 0=1 -23301=0
ReLU             prelu4_2_4       1 1 eltwise4_2_4 prelu4_2_4
Split            splitncnn_26     1 2 prelu4_2_4 prelu4_2_4_splitncnn_0 prelu4_2_4_splitncnn_1
Convolution      conv5_0_0        1 1 prelu4_2_4_splitncnn_1 conv5_0_0 0=4 1=1 2=1 3=1 4=0 5=0 6=256
BatchNorm        BN5_0_0          1 1 conv5_0_0 BN5_0_0 0=4
Scale            BN5_0_0/scale    1 1 BN5_0_0 BN5_0_0_BN5_0_0/scale 0=4 1=1
ReLU             prelu5_0_0       1 1 BN5_0_0_BN5_0_0/scale prelu5_0_0
Deconvolution    deconv5_0_1      1 1 prelu5_0_0 deconv5_0_1 0=4 1=2 2=1 3=2 4=0 5=1 6=64
BatchNorm        BN5_0_1          1 1 deconv5_0_1 BN5_0_1 0=4
Scale            BN5_0_1/scale    1 1 BN5_0_1 BN5_0_1_BN5_0_1/scale 0=4 1=1
ReLU             prelu5_0_1       1 1 BN5_0_1_BN5_0_1/scale prelu5_0_1
Convolution      conv5_0_2        1 1 prelu5_0_1 conv5_0_2 0=16 1=1 2=1 3=1 4=0 5=0 6=64
BatchNorm        BN5_0_2          1 1 conv5_0_2 BN5_0_2 0=16
Scale            BN5_0_2/scale    1 1 BN5_0_2 BN5_0_2_BN5_0_2/scale 0=16 1=1
Dropout          drop5_0_3        1 1 BN5_0_2_BN5_0_2/scale drop5_0_3
Convolution      conv5_0_4        1 1 prelu4_2_4_splitncnn_0 conv5_0_4 0=16 1=1 2=1 3=1 4=0 5=0 6=1024
BatchNorm        BN5_0_4          1 1 conv5_0_4 BN5_0_4 0=16
Scale            BN5_0_4/scale    1 1 BN5_0_4 BN5_0_4_BN5_0_4/scale 0=16 1=1
Interp           upsample5_0_4    2 1 BN5_0_4_BN5_0_4/scale pool1_0_4_mask upsample5_0_4 0=2 1=2.000000e+00 2=2.000000e+00 3=0 4=0
Eltwise          eltwise5_0_4     2 1 drop5_0_3 upsample5_0_4 eltwise5_0_4 0=1 -23301=0
Convolution      conv5_0_5        1 1 prelu0_1_splitncnn_0 conv5_0_5 0=16 1=1 2=1 3=1 4=0 5=0 6=256
Eltwise          eltwise4_2_5     2 1 conv5_0_5 eltwise5_0_4 eltwise5_0_5 0=1 -23301=0
ReLU             prelu5_0_4       1 1 eltwise5_0_5 prelu5_0_4
Split            splitncnn_27     1 2 prelu5_0_4 prelu5_0_4_splitncnn_0 prelu5_0_4_splitncnn_1
Convolution      conv5_1_0        1 1 prelu5_0_4_splitncnn_1 conv5_1_0 0=4 1=1 2=1 3=1 4=0 5=0 6=64
BatchNorm        BN5_1_0          1 1 conv5_1_0 BN5_1_0 0=4
Scale            BN5_1_0/scale    1 1 BN5_1_0 BN5_1_0_BN5_1_0/scale 0=4 1=1
ReLU             prelu5_1_0       1 1 BN5_1_0_BN5_1_0/scale prelu5_1_0
Convolution      conv5_1_1        1 1 prelu5_1_0 conv5_1_1 0=4 1=3 2=1 3=1 4=1 5=1 6=144
BatchNorm        BN5_1_1          1 1 conv5_1_1 BN5_1_1 0=4
Scale            BN5_1_1/scale    1 1 BN5_1_1 BN5_1_1_BN5_1_1/scale 0=4 1=1
ReLU             prelu5_1_1       1 1 BN5_1_1_BN5_1_1/scale prelu5_1_1
Convolution      conv5_1_2        1 1 prelu5_1_1 conv5_1_2 0=16 1=1 2=1 3=1 4=0 5=0 6=64
BatchNorm        BN5_1_2          1 1 conv5_1_2 BN5_1_2 0=16
Scale            BN5_1_2/scale    1 1 BN5_1_2 BN5_1_2_BN5_1_2/scale 0=16 1=1
Dropout          drop5_1_3        1 1 BN5_1_2_BN5_1_2/scale drop5_1_3
Eltwise          eltwise5_1_4     2 1 drop5_1_3 prelu5_0_4_splitncnn_0 eltwise5_1_4 0=1 -23301=0
ReLU             prelu5_1_4       1 1 eltwise5_1_4 prelu5_1_4
Deconvolution    deconv6_0_0      1 1 prelu5_1_4 deconv6_0_0 0=3 1=2 2=1 3=2 4=0 5=1 6=192
